…
   Experiment resnet_inference_Mar07_10-48-50 has been registered.
2 [SwanLab-INFO]:        Run data will be saved locally in D:\Pytorch-Swanlab\hello_pytorch\lesson\lesson-32\swanlog\run-20240307_104850-0b2fe887
3 [SwanLab-INFO]:        Experiment_name: resnet_inference_Mar07_10-48-50
4 [SwanLab-INFO]:        Run `swanlab watch` to view SwanLab Experiment Dashboard
5 ----------------------------------------------------------------
6         Layer (type)               Output Shape         Param #
7 ================================================================
8             Conv2d-1         [-1, 64, 112, 112]           9,408
9        BatchNorm2d-2         [-1, 64, 112, 112]             128
10               ReLU-3         [-1, 64, 112, 112]               0
11          MaxPool2d-4           [-1, 64, 56, 56]               0
12             Conv2d-5           [-1, 64, 56, 56]          36,864
13        BatchNorm2d-6           [-1, 64, 56, 56]             128
14               ReLU-7           [-1, 64, 56, 56]               0
15             Conv2d-8           [-1, 64, 56, 56]          36,864
16        BatchNorm2d-9           [-1, 64, 56, 56]             128
17              ReLU-10           [-1, 64, 56, 56]               0
18        BasicBlock-11           [-1, 64, 56, 56]               0
19            Conv2d-12           [-1, 64, 56, 56]          36,864
20       BatchNorm2d-13           [-1, 64, 56, 56]             128
21              ReLU-14           [-1, 64, 56, 56]               0
22            Conv2d-15           [-1, 64, 56, 56]          36,864
23       BatchNorm2d-16           [-1, 64, 56, 56]             128
24              ReLU-17           [-1, 64, 56, 56]               0
25        BasicBlock-18           [-1, 64, 56, 56]               0
26            Conv2d-19          [-1, 128, 28, 28]          73,728
27       BatchNorm2d-20          [-1, 128, 28, 28]             256
28              ReLU-21          [-1, 128, 28, 28]               0
29            Conv2d-22          [-1, 128, 28, 28]         147,456
30       BatchNorm2d-23          [-1, 128, 28, 28]             256
31            Conv2d-24          [-1, 128, 28, 28]           8,192
32       BatchNorm2d-25          [-1, 128, 28, 28]             256
33              ReLU-26          [-1, 128, 28, 28]               0
34        BasicBlock-27          [-1, 128, 28, 28]               0
35            Conv2d-28          [-1, 128, 28, 28]         147,456
36       BatchNorm2d-29          [-1, 128, 28, 28]             256
37              ReLU-30          [-1, 128, 28, 28]               0
38            Conv2d-31          [-1, 128, 28, 28]         147,456
39       BatchNorm2d-32          [-1, 128, 28, 28]             256
40              ReLU-33          [-1, 128, 28, 28]               0
41        BasicBlock-34          [-1, 128, 28, 28]               0
42            Conv2d-35          [-1, 256, 14, 14]         294,912
43       BatchNorm2d-36          [-1, 256, 14, 14]             512
44              ReLU-37          [-1, 256, 14, 14]               0
45            Conv2d-38          [-1, 256, 14, 14]         589,824
46       BatchNorm2d-39          [-1, 256, 14, 14]             512
47            Conv2d-40          [-1, 256, 14, 14]          32,768
48       BatchNorm2d-41          [-1, 256, 14, 14]             512
49              ReLU-42          [-1, 256, 14, 14]               0
50        BasicBlock-43          [-1, 256, 14, 14]               0
51            Conv2d-44          [-1, 256, 14, 14]         589,824
52       BatchNorm2d-45          [-1, 256, 14, 14]             512
53              ReLU-46          [-1, 256, 14, 14]               0
54            Conv2d-47          [-1, 256, 14, 14]         589,824
55       BatchNorm2d-48          [-1, 256, 14, 14]             512
56              ReLU-49          [-1, 256, 14, 14]               0
57        BasicBlock-50          [-1, 256, 14, 14]               0
58            Conv2d-51            [-1, 512, 7, 7]       1,179,648
59       BatchNorm2d-52            [-1, 512, 7, 7]           1,024
60              ReLU-53            [-1, 512, 7, 7]               0
61            Conv2d-54            [-1, 512, 7, 7]       2,359,296
62       BatchNorm2d-55            [-1, 512, 7, 7]           1,024
63            Conv2d-56            [-1, 512, 7, 7]         131,072
64       BatchNorm2d-57            [-1, 512, 7, 7]           1,024
65              ReLU-58            [-1, 512, 7, 7]               0
66        BasicBlock-59            [-1, 512, 7, 7]               0
67            Conv2d-60            [-1, 512, 7, 7]       2,359,296
68       BatchNorm2d-61            [-1, 512, 7, 7]           1,024
69              ReLU-62            [-1, 512, 7, 7]               0
70            Conv2d-63            [-1, 512, 7, 7]       2,359,296
71       BatchNorm2d-64            [-1, 512, 7, 7]           1,024
72              ReLU-65            [-1, 512, 7, 7]               0
73        BasicBlock-66            [-1, 512, 7, 7]               0
74 AdaptiveAvgPool2d-67            [-1, 512, 1, 1]               0
75            Linear-68                    [-1, 2]           1,026
76 ================================================================
77 Total params: 11,177,538
78 Trainable params: 11,177,538
79 Non-trainable params: 0
80 ----------------------------------------------------------------
81 Input size (MB): 0.57
82 Forward/backward pass size (MB): 62.79
83 Params size (MB): 42.64
84 Estimated Total Size (MB): 106.00
85 ----------------------------------------------------------------
…
